…
output_layer = Dense(NUM_CLASSES, activation = ’softmax’)(x)
model = Model(input_layer, output_layer)
11.13
ReLU (Rectified Linear Unit) Activation Function
https://medium.com/@danqing/a-practical-guide-to-relu-b83ca804f1f7
11.14
Keras: Building the model
from keras.optimizers import Adam
opt = Adam(lr=0.0005)
model.compile(loss=’categorical_crossentropy’,
optimizer=opt,
metrics=[’accuracy’])
11.15
Keras: Model Summary
_________________________________________________________________
Layer (type) Output Shape Param #
=================================================================
input_2 (InputLayer) (None, 32, 32, 3) 0
flatten_2 (Flatten) (None, 3072) 0
dense_4 (Dense) (None, 200) 614600
dense_5 (Dense) (None, 150) 30150
dense_6 (Dense) (None, 10) 1510
Total params: 646,260
Trainable params: 646,260
Non-trainable params: 0
11.16
Training the Model
model.fit(x_train,
y_train,
batch_size = 32,
epochs = 10,
shuffle = True)
11.17
Training: Output
Epoch 1/10
50000/50000 [==========================] - 13s 262us/step - loss: 1.8490 - accuracy: 0.3361
Epoch 2/10
50000/50000 [==========================] - 13s 257us/step - loss: 1.6592 - accuracy: 0.4104
…
http://jmlr.org/papers/volume15/srivastava14a/srivastava14a.pdf
11.32
Complete Network in Keras
x = Conv2D(filters=32, kernel_size=3, strides=1, padding=’same’)(input_layer)
x = BatchNormalization()(x)
x = LeakyReLU()(x)
x = Conv2D(filters = 32, kernel_size = 3, strides = 2, padding = ’same’)(x)
x = Conv2D(filters = 64, kernel_size = 3, strides = 1, padding = ’same’)(x)
x = Conv2D(filters = 64, kernel_size = 3, strides = 2, padding = ’same’)(x)
x = Flatten()(x)
x = Dense(128)(x)
x = Dropout(rate = 0.5)(x)
x = Dense(NUM_CLASSES)(x)
output_layer = Activation(’softmax’)(x)
11.33
Resulting Model (1/2)
input_13 (InputLayer) (None, 32, 32, 3) 0
conv2d_11 (Conv2D) (None, 32, 32, 32) 896
batch_normalization_6 (Batch (None, 32, 32, 32) 128
leaky_re_lu_6 (LeakyReLU) (None, 32, 32, 32) 0
conv2d_12 (Conv2D) (None, 16, 16, 32) 9248
batch_normalization_7 (Batch (None, 16, 16, 32) 128
leaky_re_lu_7 (LeakyReLU) (None, 16, 16, 32) 0
conv2d_13 (Conv2D) (None, 16, 16, 64) 18496
batch_normalization_8 (Batch (None, 16, 16, 64) 256
leaky_re_lu_8 (LeakyReLU) (None, 16, 16, 64) 0
conv2d_14 (Conv2D) (None, 8, 8, 64) 36928
11.34
Resulting Model (2/2)
batch_normalization_9 (Batch (None, 8, 8, 64) 256
leaky_re_lu_9 (LeakyReLU) (None, 8, 8, 64) 0
flatten_13 (Flatten) (None, 4096) 0
dense_30 (Dense) (None, 128) 524416
batch_normalization_10 (Batc (None, 128) 512
leaky_re_lu_10 (LeakyReLU) (None, 128) 0
dropout_2 (Dropout) (None, 128) 0
dense_31 (Dense) (None, 10) 1290
activation_2 (Activation) (None, 10) 0
Total params: 592,554
Trainable params: 591,914
Non-trainable params: 640
11.35
Training
batch_size=32,
epochs=10,
shuffle=True,
validation_data = (x_test, y_test))
Training (output)
Train on 50000 samples, validate on 10000 samples
50000/50000 [===============] - 118s 2ms/step - loss: 1.5609 - accuracy: 0.4556 - val_loss: 1.2602 - val_accuracy: 0.5468
50000/50000 [===============] - 114s 2ms/step - loss: 1.1528 - accuracy: 0.5914 - val_loss: 1.0027 - val_accuracy: 0.6462
…
